data.pth (torch, 9559 bytes, 6 tensors)

l1.weight f4 [8, 138]
0	0xbe92c0d5	-0.28662744
1	0xbe81dfa6	-0.25365943
2	0xbe2f8599	-0.17140807
3	0xbe358dea	-0.17729917
4	0xbf081789	-0.5316091
5	0xbed795cc	-0.42106473
6	0xbef3df75	-0.47631422
7	0x3d373c32	0.04473514
8	0xbec94718	-0.39312053
9	0xbe81f378	-0.25381064
10	0xbf1de476	-0.6167673
11	0x3d22da13	0.039758753
12	0x3f2c2b52	0.672536
13	0xbc87db98	-0.016584203
14	0x3f55595e	0.8333949
15	0x3eb806f2	0.359428
16	0xbf04bf4c	-0.51854396
17	0xbf54f7df	-0.8319072
18	0x3e8ffe81	0.2812386
19	0x3fe18fd5	1.7622019
20	0xbe863857	-0.2621486
21	0xbef82a15	-0.48469606
22	0xbe2ba0cf	-0.16760562
23	0xbe883067	-0.26599428
24	0xbc88a330	-0.016679376
25	0xbe58897b	-0.21146195
26	0xbe9d9fe8	-0.3078606
27	0xbeaa837d	-0.33303443
28	0x3c4022bc	0.011727031
29	0xbe8b4b26	-0.2720577
30	0xbf055083	-0.52075976
31	0xbed2feac	-0.41209924
32	0x3e81f089	0.25378826
33	0x3ef31263	0.47474965
34	0x3f2f4634	0.68466496
35	0x3f6637b3	0.8992874
36	0xbed5a20f	-0.41725203
37	0x3f1d0a66	0.6134399
38	0x3f2dfd36	0.67964494
39	0x3fb284c6	1.3946769
40	0x3f4af9ba	0.792873
41	0xbc4af730	-0.012388036
42	0xbd29fe16	-0.04150208
43	0xbf534ce1	-0.8253918
44	0xbe255c7f	-0.16148566
45	0xbf15b024	-0.58471894
46	0xbea311dd	-0.31849566
47	0xbf60b16d	-0.8777073
48	0xbe915709	-0.28386715
49	0xbf5e79e3	-0.86904734
50	0xbf60cd74	-0.87813497
51	0xbf60c2f4	-0.87797475
52	0xbf58051e	-0.8438281
53	0xbf60c9b6	-0.87807786
54	0xbe2d4951	-0.16922499
55	0x3cb278cb	0.021786114
56	0x3ed153ab	0.40884146
57	0x3ee78fdc	0.45226943
58	0x3f5a8c36	0.85370195
59	0xbf320374	-0.6953652
60	0x3e116de5	0.14202078
61	0xbeb7adb8	-0.35874724
62	0xbee5a51f	-0.4485254
63	0x3f3321db	0.69973534
64	0xbed33bb5	-0.4125649
65	0x3edf1775	0.43572584
66	0x3ed325c5	0.41239753
67	0x3f192255	0.5981801
68	0x3f556238	0.83352995
69	0xbe478614	-0.1948474
70	0xbf17a023	-0.59228724
71	0xbd244740	-0.04010701
72	0xbcc43457	-0.023950739
73	0xbf3fcc10	-0.7492075
74	0xbe818b6b	-0.2530168
75	0xbe6271a8	-0.22113669
76	0xbdd148f2	-0.10218991
77	0xbf5bcf79	-0.85863453
78	0x3e9a6db0	0.3016181
79	0x3d7faf83	0.06242324
80	0xbedfc5b4	-0.43705523
81	0x3f66b5c0	0.9012108
82	0xbb733d0b	-0.0037115242
83	0x3c9aaa65	0.018880079
84	0xbea39d92	-0.31956154
85	0x3d115d1a	0.03548918
86	0x3e70a8dc	0.23501915
87	0x3f17bc15	0.59271365
88	0xbf072aed	-0.52799875
89	0x3f9e9093	1.238787
90	0x3ed32dc4	0.41245854
91	0x3f06518a	0.5246817
92	0xbeee0474	-0.46487772
93	0x3eaaf95d	0.33393374
94	0xbeab3855	-0.33441415
95	0x3e0c40b5	0.13696559
96	0xbe2bb039	-0.16766442
97	0xbe3bd622	-0.18343404
98	0x3f11c667	0.5694336
99	0xba5ab37e	-0.00083427865
100	0xbf90e5c5	-1.132012
101	0xbe215b41	-0.15757467
102	0x3f3b0ae1	0.73063475
103	0xbee9dbb3	-0.4567543
104	0x3e78a099	0.24280013
105	0x3f8583b4	1.0430818
106	0x3f9c6869	1.2219363
107	0x3d12e5c9	0.03586367
108	0x3e628f6c	0.22125024
109	0x3ed5b075	0.4173619
110	0xbe171b42	-0.14756492
111	0xbee6784d	-0.45013657
112	0xbea117bb	-0.31463417
113	0xbf60f2f1	-0.878707
114	0xbe9d924f	-0.30775687
115	0xbe3a5355	-0.18195851
116	0xbf1c8e15	-0.611543
117	0xbeb3adcf	-0.35093543
118	0xbe919923	-0.28437147
119	0xbeb92b79	-0.3616598
120	0x3f26411a	0.6494309
121	0x3de1ea6d	0.11031041
122	0xbf2a43fa	-0.66509974
123	0x3ec482e7	0.3838112
124	0xbe9e9565	-0.30973354
125	0xbede465c	-0.43413055
126	0xbca8358e	-0.02053335
127	0xbd07a70b	-0.03311829
128	0xbe3b83eb	-0.18312041
129	0xbda80ce2	-0.08205582
130	0xbd8ad21e	-0.06778358
131	0xbdbe7593	-0.09299769
132	0xbe3262fd	-0.17420574
133	0xbd132894	-0.03592737
134	0xbdfb1025	-0.12258939
135	0xbf405216	-0.75125253
136	0x3b8c6f7e	0.004285752
137	0x3f0e6b68	0.5563264
138	0x3efc5e98	0.4929092
139	0xbe09baa6	-0.13450107
140	0xbe48aefb	-0.19598
141	0x3f112932	0.56703484
142	0x3f5e8542	0.86922085
143	0x3dcedb56	0.10100429
144	0x3f504e55	0.81369525
145	0xbdb8c401	-0.0902176
146	0x3edf8130	0.4365325
147	0x3e421dd9	0.18956698
148	0x3e3ff876	0.18747124
149	0xbfcdaed9	-1.6068984
150	0xbee9e23c	-0.45680416
151	0x3f080c4a	0.5314375
152	0xbe6401ee	-0.22266361
153	0xbfb24402	-1.3927004
154	0xbec6e419	-0.388459
155	0x3f8c1e3e	1.0946729
156	0x3eaef6bd	0.3417262
157	0x3eb08332	0.34475094
158	0x3f2527ae	0.6451367
159	0x3f7d8cb3	0.99042815
160	0x3e9b5723	0.30339918
161	0xbf2fc9db	-0.6866738
162	0xbe55b3fb	-0.20869438
163	0x3ea96d2b	0.330911
164	0xbd52453d	-0.051335562
165	0x3f3d512e	0.73951995
166	0xbdc9aeff	-0.09847831
167	0x3d3e1802	0.046409614
168	0xbee35a97	-0.44405052
169	0xbe89afee	-0.26892036
170	0xbf793c4f	-0.9735765
171	0x3f842212	1.0322897
172	0xbf45e9c5	-0.7730983
173	0x3ede782d	0.43451062
174	0xbf15f31e	-0.5857409
175	0x3e28ee4b	0.16497152
176	0xbf110290	-0.56644535
177	0x3d6fbfb4	0.05853243
178	0x3fafcbe5	1.3734099
179	0x3ef7c30f	0.48391005
180	0xbd89d1c4	-0.06729463
181	0x3f772a6b	0.965491
182	0x3f1c2290	0.6099024
183	0x3edd4bbf	0.43221852
184	0x3eb21cc4	0.3478757
185	0xbd9eba40	-0.07750368
186	0x3f328071	0.69727236
187	0xbe1f44ce	-0.1555359
188	0xbdca44d6	-0.09876411
189	0xbd29b79f	-0.04143488
190	0xbdf94c34	-0.12172738
191	0xbe05cd7d	-0.13066669
192	0x3f945ae8	1.1590242
193	0x3f71f2ec	0.94511294
194	0xbdbacd64	-0.091212064
195	0xbe8bb35b	-0.27285275
196	0xbf165241	-0.5871926
197	0xbf5add4e	-0.85493934
198	0xbe40e671	-0.18837906
199	0x3f101711	0.56285197
200	0x3eff4263	0.49855337
201	0xbef5c478	-0.48001456
202	0x3f66dff5	0.9018548
203	0x3c8d7cae	0.017271366
204	0x3d3bf222	0.045885213
205	0xbf9afa27	-1.210759
206	0x3fbcaba8	1.4739885
207	0xbe41962a	-0.1890494
208	0x3f599061	0.8498593
209	0x3eed3f72	0.46337467
210	0x3d8e61d0	0.0695225
211	0xbe1649a0	-0.14676523
212	0xbf1da0cf	-0.615735
213	0x3edf1781	0.4357262
214	0x3ec7ce8d	0.39024773
215	0xbe2744f5	-0.16334899
216	0xbe8d6170	-0.276134
217	0x3e2d067c	0.16897005
218	0x3f8ef62c	1.1168876
219	0x3f96febc	1.1796489
220	0xbe0341f0	-0.12818122
221	0x3d130677	0.035894837
222	0x3e865585	0.2623712
223	0x3da71450	0.08158171
224	0x3f092efe	0.5358733
225	0x3fa14b02	1.2601016
226	0x3d3b8b0c	0.045786902
227	0xbf85d83a	-1.0456612
228	0xbe45b70f	-0.19308113
229	0xbe91a622	-0.28447062
230	0x3eea92da	0.45815164
231	0xbf837640	-1.0270462
232	0x3e0c2523	0.13686042
233	0xbf0eab72	-0.55730355
234	0xbe904d55	-0.28184
235	0xbec79ee2	-0.38988405
236	0xbda7477e	-0.08167933
237	0x3fbead56	1.4896648
238	0xbf83e157	-1.0303143
239	0x3f253b36	0.64543474
240	0x3f08d835	0.53454906
241	0x3f16db76	0.5892862
242	0xbf27b86a	-0.6551577
243	0x3f94da61	1.1629144
244	0xbf430f5b	-0.76195306
245	0x3dc3f191	0.095675595
246	0x3f0298f3	0.5101463
247	0xbe94f579	-0.2909353
248	0xbe45204a	-0.19250599
249	0x3efed1ef	0.49769542
250	0x3f40e1c8	0.75344515
251	0x3f8ae15a	1.0850022
252	0x3f13942d	0.57647973
253	0x3efc6e84	0.49303067
254	0x3dc1eacd	0.09468613
255	0xbf7711ae	-0.9651135

l1.bias f4 [8]
0	0x3f60c444	0.8779948
1	0x3fa0629b	1.2530092
2	0x3fcd4bb0	1.6038723
3	0x3f28225a	0.65677416
4	0x3f28bf90	0.659173
5	0x3f742919	0.9537521
6	0x3f53d838	0.827518
7	0x3fd75e27	1.6825608

l2.weight f4 [8, 8]
0	0x40247b9e	2.570045
1	0xbb2b1733	-0.0026106357
2	0x3f2f7674	0.6854012
3	0xbe4a5499	-0.19758834
4	0x4026a768	2.6039677
5	0x3f869c12	1.0516379
6	0xbf1a99dd	-0.60391027
7	0xbf5d5bfe	-0.86468494
8	0x3eb65d7c	0.35618198
9	0xbbb1b2c5	-0.0054229223
10	0x3fd9aabd	1.700523
11	0x3f81ab2a	1.013036
12	0x403c9ad8	2.946951
13	0xbf3bd83b	-0.73376817
14	0x3f8e5b90	1.1121693
15	0xbf8503ce	-1.0391786
16	0x3f8f0a2d	1.117498
17	0xbfaa4cd7	-1.33047
18	0x3f453fea	0.7705065
19	0x3f56219d	0.8364504
20	0xbf04655b	-0.51717156
21	0x3fca0861	1.5783807
22	0xbfdb7372	-1.7144606
23	0x3fb6877f	1.42601
24	0x3fa117be	1.258537
25	0xbe5e64cf	-0.21718143
26	0xbe14e9a8	-0.14542258
27	0x401e5a4d	2.4742615
28	0x3f86e127	1.0537461
29	0x400338ff	2.0503538
30	0x3f732649	0.94980294
31	0xbe9b8ba9	-0.3037999
32	0x3f9ee5ca	1.2413876
33	0x3fe17a16	1.7615383
34	0xbf2c8532	-0.6739074
35	0x3f556caa	0.83368933
36	0x3f7ba1f3	0.9829399
37	0x3fd86f09	1.6908885
38	0xbf6b1a4a	-0.9183699
39	0x3e9733c4	0.29531682
40	0xbfa98951	-1.3245031
41	0x403aa743	2.9164588
42	0x3f3b5edf	0.73191637
43	0x3f9f8063	1.2461056
44	0xbfc23838	-1.5173407
45	0x3f1abb5c	0.6044214
46	0x40203832	2.50343
47	0x4026eace	2.6080813
48	0x3e23e921	0.160069
49	0x3e212435	0.15736468
50	0x4018fc0b	2.3903835
51	0xc00a0800	-2.1567383
52	0xbe78b64b	-0.24288289
53	0xbf9a98b1	-1.2077848
54	0x3f5a8898	0.85364676
55	0x4003bda5	2.05845
56	0x400f820c	2.2423124
57	0x3febbdb4	1.8417268
58	0x3fc5b992	1.5447257
59	0x3e9f4e67	0.31114504
60	0xbe8c7d14	-0.27439177
61	0xbed5b421	-0.4173899
62	0xbfa4354e	-1.2828767
63	0xbf6bbc05	-0.9208377

l2.bias f4 [8]
0	0x3f02dc41	0.5111733
1	0xbe224dd2	-0.15849999
2	0x3fa2c069	1.2714969
3	0xbebc219f	-0.367444
4	0x3f2d2c58	0.6764579
5	0x3f3a6e95	0.72824985
6	0x3fa8bad2	1.3182013
7	0xbddba315	-0.10724465

l3.weight f4 [24, 8]
0	0x3eec32c1	0.46132472
1	0x3da1e76e	0.0790547
2	0x3f63d58d	0.8899773
3	0xbe0bef84	-0.13665587
4	0x3e8c5fa6	0.27416724
5	0xbff9b349	-1.9507838
6	0x3d3881f1	0.045045797
7	0xbfbf9e9a	-1.4970276
8	0xbeaf692e	-0.34259933
9	0xbece07fe	-0.40240473
10	0x3f74d478	0.956367
11	0xbfd0a880	-1.6301422
12	0xbf6fa4de	-0.9361094
13	0xbf4bc358	-0.79594946
14	0x3f606260	0.8765011
15	0x3d0edcf6	0.034878694
16	0xc00a1c9f	-2.157997
17	0xbea1e611	-0.3162084
18	0x3f4350ae	0.7629498
19	0xc00de77d	-2.217254
20	0xbfa2e90f	-1.2727374
21	0x3e8fbe78	0.28075004
22	0x3f57bf12	0.84275925
23	0xc00a8324	-2.1642542
24	0xbfd48234	-1.6602235
25	0x3f16a817	0.58850235
26	0xbf7e6bc5	-0.99383193
27	0xbe8dd697	-0.27702782
28	0xbfd528d6	-1.6653087
29	0x3ed89e7f	0.42308423
30	0x3e7e2e7f	0.24822424
31	0xbfd7e3d2	-1.68664
32	0x3ecd8d4a	0.40146858
33	0xbfd7a97a	-1.6848595
34	0x3f59cce4	0.85078263
35	0x3f33cf94	0.70238614
36	0x3f189657	0.596044
37	0xc007e947	-2.123613
38	0xbff35cae	-1.9012659
39	0xbecaaa54	-0.39583075
40	0x3e8d90fc	0.27649677
41	0x3f5e5f85	0.868645
42	0xbfe4ea39	-1.7883979
43	0xbebdcdff	-0.37071225
44	0xbfabb051	-1.3413182
45	0xbef8d9c5	-0.48603645
46	0x3ef5100d	0.47863808
47	0xbfbc2314	-1.4698205
48	0x3eaca589	0.33720043
49	0xbfcfbb18	-1.6228971
50	0x3eeda985	0.46418396
51	0xbedc25f4	-0.42997706
52	0x3e58ff3c	0.21191114
53	0xbf34d14e	-0.70631874
54	0xbe9fc239	-0.31202868
55	0x3ef05b05	0.46944442
56	0x3e593b40	0.21214008
57	0x3f0bb032	0.5456573
58	0xbfcf3595	-1.6188227
59	0x3e8e5aac	0.27803552
60	0x3e57fbbf	0.21092127
61	0xbf8c770e	-1.0973833
62	0xbf8d1aff	-1.1023864
63	0x3eb60e3f	0.35557744
64	0x3e710335	0.2353638
65	0x3ee63743	0.44964036
66	0xbeed432c	-0.4634031
67	0xbe740685	-0.23830612
68	0x3d11df64	0.035613433
69	0xc02bd9dd	-2.6851723
70	0x3e509938	0.20370948
71	0x3eaceeab	0.3377584
72	0xbff9f126	-1.9526718
73	0xc0142d86	-2.3152785
74	0xc00e81bb	-2.2266681
75	0xc0337846	-2.804216
76	0xbe18156a	-0.14851919
77	0x3f84b018	1.036624
78	0x3f3e6eff	0.74388117
79	0xbfe541f4	-1.7910752
80	0xc02a76d3	-2.6635025
81	0xc0836397	-4.105907
82	0x3efc1d85	0.49241272
83	0xbe914320	-0.28371525
84	0x3dbb1d96	0.091365024
85	0x3f1d15e5	0.61361533
86	0x3ef86d29	0.48520783
87	0xc03d0737	-2.9535654
88	0xbdaa8b90	-0.08327401
89	0x3f143ce7	0.5790543
90	0xbfec559a	-1.8463624
91	0x3ec4a56c	0.38407457
92	0x3e68ac05	0.2272187
93	0x3cac7a9c	0.021054558
94	0xc008e89b	-2.139197
95	0xbf56d5d5	-0.8392003
96	0xbf5b274b	-0.8560683
97	0x3d94426f	0.07239234
98	0xc008c4fa	-2.1370225
99	0xbfbf92dd	-1.4966694
100	0xbf39d6c9	-0.7259336
101	0x3e879663	0.26481923
102	0x3edeb5c2	0.43498045
103	0x3e75ee5f	0.24016713
104	0x3e9f2efe	0.3109054
105	0xbec389c4	-0.38191044
106	0xbd972347	-0.073797755
107	0xbee8a16c	-0.45435655
108	0x3f2b8ad6	0.6700872
109	0xbe60d22b	-0.21955173
110	0xc027b67c	-2.620513
111	0x3eeb46eb	0.45952544
112	0x3e02fa96	0.12790903
113	0xbfe8066f	-1.8126963
114	0x3f967cce	1.1756837
115	0xbe5a4868	-0.21316683
116	0x3e3b1911	0.18271281
117	0xbe5af621	-0.21382953
118	0xbe34f86d	-0.17672892
119	0xc04348df	-3.0513227
120	0xbf0c67b3	-0.5484573
121	0xbf8926fd	-1.0715023
122	0xbe8799f6	-0.2648465
123	0xbf9519e8	-1.1648531
124	0x3f31cc51	0.6945239
125	0x3e86daed	0.26338902
126	0x3e978772	0.29595524
127	0xbe6d7b44	-0.23191553
128	0xbef48e41	-0.4776478
129	0x3e737fd4	0.23779231
130	0x3e362e08	0.17790997
131	0x3ee3a280	0.44459915
132	0xbe68a0ad	-0.22717543
133	0xbecad6cd	-0.39617005
134	0xbf12f87c	-0.5741041
135	0xbefb67f1	-0.49102738
136	0xc01d7a19	-2.4605772
137	0xc01c18ec	-2.439021
138	0x3f122a6b	0.57095975
139	0x3e24830d	0.16065617
140	0x3ed244c6	0.41068095
141	0x3f3a479b	0.7276551
142	0xc0208496	-2.5080924
143	0xbf02b7d3	-0.51061743
144	0x3dc69c4f	0.09697782
145	0x3f149800	0.58044434
146	0x3f02ab55	0.5104268
147	0x3ed3a22d	0.41334668
148	0x3c1cc57d	0.009568569
149	0xbff87796	-1.9411495
150	0xbfe7d7de	-1.8112752
151	0x3dbdde3e	0.09270905
152	0xbe8df694	-0.27727187
153	0xbfb82f34	-1.4389405
154	0x3f89f986	1.0779274
155	0x3f262b5c	0.6490991
156	0x3e7c7c12	0.24656704
157	0xbe360c2d	-0.17778082
158	0xc0303949	-2.7534964
159	0xbfc94c88	-1.572648
160	0xbf599cdd	-0.8500498
161	0xbf698c43	-0.9122965
162	0xbf8c4ba3	-1.0960582
163	0x3ebab6d6	0.36467618
164	0x3e0d7311	0.13813426
165	0x3f161499	0.5862518
166	0xbfaae5f2	-1.3351424
167	0xbe902e57	-0.28160354
168	0xbdd9802a	-0.106201485
169	0x3f0204f3	0.507888
170	0xbf0f0f76	-0.55882967
171	0xbefb2be2	-0.49056917
172	0xbf016fb3	-0.50561064
173	0xbf462dba	-0.77413523
174	0x3eb3beff	0.35106656
175	0x3e2a2550	0.16615796
176	0xc02b4025	-2.67579
177	0xbefb962c	-0.4913801
178	0xbff620af	-1.9228724
179	0xbc2906d2	-0.0103165675
180	0x3e616c37	0.22013937
181	0x3f55f3ed	0.83575326
182	0xbeb705ae	-0.3574652
183	0xc034dc97	-2.8259637
184	0xbdfded50	-0.123987794
185	0x3c7d0045	0.015441959
186	0xc02b6193	-2.6778305
187	0xbdcbf38e	-0.09958564
188	0x3d989778	0.07450765
189	0x3a1a8a43	0.00058952364
190	0x3e1f596e	0.15561458
191	0xbece1884	-0.4025308

l3.bias f4 [24]
0	0x3e83c276	0.257343
1	0x3ed8d160	0.4234724
2	0x3b0f7ce9	0.002189452
3	0x3db4e1d2	0.08832134
4	0x3da75da2	0.08172156
5	0x3ea2dafa	0.3180769
6	0xbebd05c5	-0.36918464
7	0xbecfbc0d	-0.4057316
8	0xbe88f3af	-0.26748416
9	0x3ebfdd27	0.37473413
10	0x3ee6942a	0.45034915
11	0x3d3c4bcb	0.04597072
12	0xbe7c627b	-0.24646942
13	0x3daf659e	0.08564304
14	0x3d4088e3	0.047005545
15	0x3e58fea0	0.21190882
16	0xbe8f0fba	-0.27941686
17	0xbd62971e	-0.055319898
18	0x3c4e72b9	0.012600594
19	0x3e5f912a	0.2183272
20	0xbef8128a	-0.48451644
21	0xbeb9c6b5	-0.36284414
22	0x3e7a2842	0.2442942
23	0xbee1f9fd	-0.44136038
