data.pth (torch, 8919 bytes, 6 tensors)

l1.weight f4 [8, 131]
00000000: 1087 3a3e 73dc fa3e f062 a73e 14c1 713f
00000010: 3971 143e 3e51 043f 4094 5f3e b347 cbbe
00000020: 682c 923e f4d8 97be 3025 6abf 4dcf 8b3e
00000030: 5799 2a3e 98f1 d93e 7167 f4be bf5d ed3e
00000040: fa65 a43e 91c9 5cbf 63ea 463e 64b6 6d3e
00000050: 004d 2d3f 7f9f 3a3e 691b 71be 6f81 c5be
00000060: c7ec 823e cceb 7b3e bd49 ca3c 1248 bebe
00000070: 05a1 b13e 89d9 5d3f 137f 143f 806f aebe
00000080: 0b1c b23e a28f b93e aace 093e 8661 553f
00000090: 3471 cdbe b3b6 8c3e 35ac c73e 296e 0f3f
000000a0: ebb1 c63e 5240 4bbf 6d80 c73e 4524 303f
000000b0: 3323 103f 24f4 a63e c8bc 373f 943b fbbe
000000c0: 3fd8 5cbf 0fcc 39bf 3ad6 5cbf fd41 2e3f
000000d0: 92d5 5cbf 8cd7 5cbf 5cc1 5cbf d7e0 563f
000000e0: 411c 1a3f a0c6 adbb c920 423b 0c8b b53e
000000f0: 79d2 7dbe 2248 f13d e63b 583f 2ea4 05bf
00000100: 3b3e bebd 6a51 213f 7005 5a3c cc06 23bf
00000110: acbd 1bbd d955 173e e0a5 5b3f 9c89 15be
00000120: 8438 c93e 8b33 6a3f 5582 653e 4c79 eebe
00000130: a6eb 9c3e ba30 173e 30ae c83e 2601 c33f
00000140: bf1a 293f 41c2 263f b04a 233f ecdc a8be
00000150: 5a90 92be e10e 62be 5541 8bbd 0d63 ac3d
00000160: 8181 243f fbbf 47bf 379d 583e 52b8 f7bc
00000170: 936f a13e 7d87 843e fe2d 193f a476 52bd
00000180: 7bfa 303e 98a7 2d3d 1083 b3be eac4 db3e
00000190: f276 643e 4570 1fbf 51d4 30bf d750 0c3f
000001a0: 05c6 473f ec44 993e aa86 273f d2d9 c6bd
000001b0: 7fa2 493f b997 ccbd a249 623f 0577 a13f
000001c0: 9668 133f e24c 92be 483a dfbd 5ab9 90be
000001d0: 7c90 96be 77ef 2abe 47b8 5cbf 4f03 5dbf
000001e0: 8d11 c93e 47bf 18bf 30a1 153f 14f6 053f
000001f0: 4685 2ebf 863e 9cbe 85f7 073c 21ac 873e
00000200: 1e09 c3bd e8f8 de3e 5b93 b7be 9a13 ae3e
00000210: e15b abbe ed37 633d 80b6 933d 72a7 e4bb
00000220: 3010 b2be c58b e63b 4946 97be 5d28 a7bb
00000230: 1b98 14be 9b08 19bf 8417 0e3f f320 c63e
00000240: 12cf 95be 4126 12bf 5f29 043f 9abf 973d
00000250: 0ab4 1d3f 0bd4 9cbe b154 1abe f354 48be
00000260: d295 8a3f fb07 fd3e c355 75be 94c3 ad3e
00000270: bb19 9abd b6c6 b83d 3603 e5be 2f0e bfbc
00000280: 3153 aabe 11d3 a4bd ed27 443f 4725 493d
00000290: 92f3 b13e 799e aebe 5ae0 98be bba6 343f
000002a0: b464 c73e c0e2 8f3e 7518 293f 7b45 eabd
000002b0: 1b01 e33d 4d89 f03e 1ba9 0b3d 7425 dc3e
000002c0: 0465 9a3e 3aec c6be 8d50 9dbe 1bbc 1a3f
000002d0: f6a6 bcbe 55fd 53bf ce6a 68be 72b1 53bf
000002e0: bdb0 32bf 56c9 41bf fad5 0f3f fb47 af3e
000002f0: 45a7 a6bd 3b5a cd3e a953 c63e 43a9 50be
00000300: 577d df3e 19c7 003e 0095 8e3f eed1 89be
00000310: 5b9b 973e c271 7ebd 6589 143f b66d 17be
00000320: 8857 bf3e 3a6a b4be 6485 f23e e90b 7cbe
00000330: d910 f7bd 2956 a83e 0e9e 00bf 4cbd 8a3e
00000340: 233a 28bd d8e9 f8be 6728 54bf c21e 443f
00000350: 950a 343f c261 e7be 133f 97be d11c fa3e
00000360: ceb2 bc3e 9622 b23e d248 f13b af76 6dbe
00000370: 2570 0d3e 9e4e c13c f4ab 0c3e c7f7 a9be
00000380: e30c a2be 385d 163f 75c4 3f3f c631 643f
00000390: 3a03 8d3f b3f4 323f 7fda 9b3e f12c 45be
000003a0: 1140 db3e b001 58be 0fe0 a5be c738 113f
000003b0: 5860 a03e cb40 a13c b5e5 56bf 7673 d4be
000003c0: 877d debd 6514 33be 9b78 11bf a972 88be
000003d0: 330c 6dbe c97a b3bd b4aa d63e 5346 c43e
000003e0: b851 dc3e ec9a 7c3f 053b a33f 8730 063f
000003f0: 9ead 8cbe 9cb6 b03e 96c9 173e d29a cdbe
0.18215585 0.48996314 0.3269267 0.9443524 0.14496316 0.51686466 0.21833897 -0.3970314
0.28549504 -0.2965771 -0.91462994 0.27306595 0.16660057 0.42567134 -0.4773517 0.46360585
0.32109052 -0.86245066 0.19425349 0.23214108 0.6769562 0.18224905 -0.23545612 -0.38575312
0.25571272 0.24601668 0.024693364 -0.3716436 0.3469316 0.8666006 0.580064 -0.34069443
0.3478702 0.36242396 0.13457742 0.83351934 -0.4012543 0.27483138 0.3899857 0.56027466
0.38807616 -0.7939502 0.3896517 0.6880534 0.5630371 0.3260814 0.7177243 -0.49068892
-0.86267465 -0.72576994 -0.86264384 0.6806944 -0.8626338 -0.862664 -0.86232543 0.8393683
0.6019936 -0.005303219 0.0029621592 0.35457647 -0.2478732 0.11781336 0.844664 -0.52203643
-0.09289213 0.63014853 0.01330696 -0.63682246 -0.038022682 0.14778842 0.8579998 -0.14603275
0.3930093 0.914849 0.22412999 -0.46576917 0.30648535 0.14764681 0.39195395 1.5234725
0.66056436 0.6514016 0.6378584 -0.3298105 -0.28625757 -0.22075988 -0.067995705 0.0841733
0.6426011 -0.78027314 0.21153723 -0.030239258 0.31530437 0.2588462 0.59835804 -0.051382676
0.1728305 0.042396158 -0.3506093 0.4292367 0.22310999 -0.62280685 -0.6907397 0.5481085
0.7803653 0.29935396 0.65439856 -0.09709515 0.78763574 -0.09989876 0.88393605 1.2614447
0.5758146 -0.28574282 -0.10899788 -0.28266412 -0.29407108 -0.16692911 -0.86218685 -0.86333174
0.39271203 -0.59666866 0.5844908 0.5232861 -0.6817211 -0.30516452 0.008298759 0.2649851
-0.09523223 0.43549275 -0.3585461 0.3399933 -0.33468536 0.055473257 0.072125435 -0.006977969
-0.34777975 0.007035705 -0.2954581 -0.005101247 -0.14511149 -0.59778756 0.5550463 0.38697013
-0.29259545 -0.5708962 0.5162563 0.07409592 0.6160284 -0.30630526 -0.1507137 -0.19563656
1.0826972 0.4942015 -0.23958497 0.33938277 -0.07524439 0.09022276 -0.44729012 -0.023322193
-0.33266595 -0.0804807 0.7662342 0.049107816 0.34756142 -0.3410528 -0.29858667 0.7056691
0.38944018 0.28102684 0.66052943 -0.114390336 0.11084195 0.46979752 0.03409682 0.42997324
0.30155194 -0.38852102 -0.30725518 0.60443276 -0.3684613 -0.8280843 -0.22696993 -0.82692635
-0.6980093 -0.7569784 0.5618588 0.34234604 -0.08137373 0.40107903 0.38735703 -0.20377068
0.43650314 0.1257595 1.1139221 -0.26917976 0.29610714 -0.062120207 0.5802215 -0.14787945
0.3737147 -0.35237294 0.47367394 -0.24613918 -0.1206376 0.32878235 -0.5024117 0.27097547
-0.04107107 -0.4861591 -0.8287415 0.7660943 0.70328647 -0.4519177 -0.2954031 0.4885011
0.36855167 0.34792012 0.007363417 -0.23189805 0.13812311 0.023597058 0.1373747 -0.33196852
-0.31650457 0.5873599 0.74909145 0.8913845 1.101661 0.6990463 0.30440137 -0.19255425
0.42822316 -0.21094394 -0.32397506 0.5672726 0.31323504 0.019684216 -0.83944255 -0.4149434
-0.10863786 -0.17488249 -0.56824654 -0.2664998 -0.23149185 -0.08763654 0.4192711 0.38334903
0.43031096 0.9867389 1.2752386 0.52417797 -0.2747621 0.3451432 0.14822993 -0.4015718

l1.bias f4 [8]
00000000: f90a 5c3f 9cde 533f d716 333f 8e2f a23f
00000010: 2f5e d13e 45c2 843f b358 173f e998 3f3f
0.8595424 0.8276155 0.69956726 1.2670763 0.4089217 1.0371786 0.5911972 0.748427

l2.weight f4 [8, 8]
00000000: 5480 0fc0 66f9 00be 3805 cc3f 9cc8 2e3f
00000010: 9bd8 473f 9838 933f ac0a b3bf 7a07 6dbd
00000020: 1cf9 8e3f 1ec5 0440 a045 97bf dc3f d13f
00000030: d307 053f 033b db3f 5fe4 48bf d68d 35bf
00000040: cddc adbe 89e7 19be 3ed6 b0be 68a3 aabd
00000050: b96b 0dbe e481 21be a214 1a3e 6028 24bd
00000060: 0abb 0c40 b78e 42bf 067a 483f 25c6 3dbe
00000070: 7337 ed3f cfc5 873f 6cb1 83bf d87f 1b40
00000080: 05e6 b73f e1dc f53e 62a5 7f3f 7d56 533f
00000090: 7679 abbc d363 eebe bccf e53f 0755 11bf
000000a0: 9535 5ebf c080 60bf 2357 59bc 4443 c93f
000000b0: 4bf3 ebbf e082 963f bd66 80be c95f d63f
000000c0: 8c3f 0ebf 2bdf 8e3f 450c d3bf 0964 513e
000000d0: 5c17 b9be c332 523f 0164 43be f69e 2cbf
000000e0: f6c4 66bf 9933 463f f403 ec3f 7fbd 3cbf
000000f0: 30d1 a93f 781e ca3f e905 763e 53dc c03e
-2.2422075 -0.12595138 1.5939093 0.68274856 0.7806489 1.1501646 -1.3987632 -0.05786846
1.1169772 2.074531 -1.1818123 1.6347613 0.51965064 1.7127384 -0.78473467 -0.7091955
-0.3395752 -0.1502973 -0.34538454 -0.083319485 -0.13810624 -0.15772206 0.15046933 -0.040077567
2.198916 -0.75999016 0.78311193 -0.18532617 1.8532547 1.0607241 -1.028852 2.429678
1.4367071 0.4802008 0.9986173 0.82553846 -0.02093194 -0.46560535 1.795402 -0.56770366
-0.8680051 -0.87696457 -0.013265404 1.5723653 -1.8433622 1.175869 -0.25078383 1.6747981
-0.55565715 1.1161855 -1.6488119 0.20448317 -0.36150634 0.82108706 -0.19081117 -0.67430055
-0.9014429 0.7742248 1.8438706 -0.7372665 1.3266964 1.5790548 0.24025692 0.37668094

l2.bias f4 [8]
00000000: a352 553f dff7 4a3f 044b a6be d267 3fbe
00000010: 5352 303f a67e 353f 6d3a 5e3c ca5b 853e
0.8332922 0.7928447 -0.32479107 -0.18691948 0.68875617 0.70896375 0.0135637345 0.26046592

l3.weight f4 [17, 8]
00000000: 7ab3 5cbf 31dc 0a3f b44d afbd 0211 75bc
00000010: c939 6ebf 5615 e4bf 83e6 30bf 5392 29bd
00000020: c6d4 aebb 88d6 b13e d0d1 ec3d 33f0 acbf
00000030: 995c 71bf 25e1 843e 2547 7e3f 7cb2 edbe
00000040: 4a27 efbf e254 443f 12b0 6d3e 9f48 eebf
00000050: a55c 15be 0183 f2bf 1861 543f 6e93 48bf
00000060: de58 7c3e 9e7c 87bf 40cd 843c 1b3d f73e
00000070: 953e a0bf 9d82 00c0 dd22 23c0 bf45 f43e
00000080: c6ff 4ebf 2e49 f83e 166c 563e dbaf 12c0
00000090: 0fba 8a3f a76d a8bf 91a8 23c0 cd0e 12c0
000000a0: 4508 bc3e 1173 383e 7d16 10be 2214 f0bf
000000b0: 66bb 0fbe 91b8 4f3f bd2c 9bbe f3c0 d3bf
000000c0: 2cc1 53bf 2501 94be b9ef a9be f7cc cb3e
000000d0: 56c0 61bf 7cd4 083f f1ac acbf 7c83 18c0
000000e0: 4574 97bf 3f47 343e 41c6 9abe ef37 233f
000000f0: d69e adbe f8fa e0bf 7a16 1bc0 5aaf 0ec0
00000100: a7fd 763f 1fa4 16be 8fd7 3dbe 50f0 25bf
00000110: 7fc9 6fbf 01e7 85bf a316 4fc0 ad56 c73e
00000120: b23d e63e 47b3 d0be 1592 33be fd3f b4bd
00000130: c179 d2bf dc89 553f 4433 f6bf c1dc cebe
00000140: 25e3 193f ef65 38c0 9453 e23d 5805 89bd
00000150: 5a6f 00bf 10aa 3a3f f25b 2cbf a585 bebd
00000160: ccc6 bd3e 19bc 12c0 04fa 55be 62f1 74be
00000170: db1e a43e a971 c6bf 4b90 97bf c0a3 233f
00000180: e81f aabf 4492 553e 002a 043c b0de cabe
00000190: bb1a 2f3e af80 f43e 6c1b 5ec0 86ae 5bbf
000001a0: 3c89 e9bd 11cb 48bf 03bf 1bbe 1d44 c7bf
000001b0: d77a 113f 3d2c ca3c 9abc 37c0 6df0 913e
000001c0: 504d dabf 0958 e6bf d26b 3d3e 03d6 d03e
000001d0: 2b7c 21bf 19a7 113f ae4f 8bbf bf86 093e
000001e0: 98d4 40bf 9187 8abf 1e82 37be a742 eb3d
000001f0: 9aaa 973f fa20 d2bf 6157 19c0 86f5 bcbf
00000200: 5509 f8bf 7bc0 e7bf ded7 f0bd ab1a 393f
00000210: f8c6 08bd cd4f d8bf 226c a8bf 45bd cd3e
-0.8621136 0.54242235 -0.085597426 -0.014957668 -0.93056923 -1.7819011 -0.6910173 -0.04139931
-0.005335423 0.34733987 0.11563456 -1.3510803 -0.9428192 0.25953022 0.9932731 -0.46425235
-1.8683865 0.7669202 0.23211697 -1.8615912 -0.14586122 -1.8946229 0.82960653 -0.7834996
0.24643275 -1.0584905 0.016211152 0.48288807 -1.2519099 -2.007972 -2.549003 0.47709462
-0.8085903 0.48493332 0.20939669 -2.2919834 1.083803 -1.3158463 -2.5571635 -2.2821534
0.3672506 0.18012644 -0.14071079 -1.8756144 -0.1403633 0.81141 -0.3030757 -1.6543258
-0.8271663 -0.28907123 -0.33190706 0.39804813 -0.88184106 0.53449225 -1.3490278 -2.3830252
-1.1832358 0.17605303 -0.3022938 0.6375722 -0.33910245 -1.757659 -2.4232469 -2.2294526
0.9648079 -0.14711045 -0.1853926 -0.6481981 -0.93666834 -1.0461122 -3.2357566 0.38933316
0.44968945 -0.40761778 -0.17536195 -0.08801267 -1.6443406 0.8341348 -1.9234395 -0.40402797
0.6011222 -2.8812215 0.110510975 -0.06690472 -0.5016991 0.72915745 -0.673278 -0.093028344
0.37065732 -2.2927306 -0.20896155 -0.23920205 0.3205479 -1.5503436 -1.184091 0.6392174
-1.3290987 0.20856577 0.008066654 -0.39623022 0.1710004 0.47754428 -3.4704237 -0.85813177
-0.114031285 -0.78434855 -0.15209584 -1.5567662 0.56828064 0.024679298 -2.8708863 0.28503743
-1.7054844 -1.7995616 0.18498161 0.40788278 -0.6308009 0.56895596 -1.0883691 0.13430308
-0.7532439 -1.0822622 -0.1792073 0.11487322 1.1848938 -1.6416314 -2.3959582 -1.4762428
-1.9377848 -1.8105615 -0.117599234 0.7230632 -0.033392876 -1.6899353 -1.3158 0.40183464

l3.bias f4 [17]
00000000: 0648 86be 10fb 9abe bd79 a73e bb07 24bf
00000010: 6f8a 4c3f 5b1c 933c 95cc 80bf 38c1 e53b
00000020: f9c0 893e 9863 25be a3d2 99be be8c 5fbd
00000030: 29cf fc3e b970 bbbc b4af 14be 67d9 ae3e
00000040: 968a dd3e
-0.26226825 -0.3026967 0.32710066 -0.64074296 0.7989873 0.017957857 -1.0062433 0.007011559
0.2690504 -0.16151273 -0.30043516 -0.05457758 0.493768 -0.022880899 -0.1452015 0.3415024
0.43269795
